app/src/main/assets/iris.tflite (tflite, 3040 bytes, 6 tensors)

arith.constant f4 [3, 16]
0	0x3f86d788	1.0534525
1	0x3e7ef218	0.24897039
2	0x3f3ba563	0.73299235
3	0xbbb993fa	-0.005663392
4	0xbfb2b871	-1.3962537
5	0x3f1b452c	0.6065242
6	0x3f580f31	0.8439818
7	0xbf93ff41	-1.1562272
8	0x3f4c688a	0.79847014
9	0x3eff7f20	0.49901676
10	0xbe175001	-0.14776613
11	0xbed64ef4	-0.4185711
12	0x3f402b4b	0.7506606
13	0x3f623da3	0.883753
14	0xbe275736	-0.16341862
15	0xbe3ebdee	-0.1862714
16	0x3fb439a8	1.4080095
17	0x3e025d34	0.12730867
18	0xbf7fb4d9	-0.99885327
19	0x3f9feb74	1.249373
20	0xbff7b3cf	-1.9351748
21	0xbf96db16	-1.178561
22	0x3f41c614	0.7569287
23	0x3f7d55b5	0.98958904
24	0xbf11f97e	-0.5702132
25	0x3f5d0441	0.86334616
26	0xbc2a9968	-0.010412551
27	0xbf0ac9a5	-0.54213935
28	0x3e8acf20	0.2711115
29	0xbf256568	-0.6460786
30	0x3dfe4b68	0.12416726
31	0xbea8dc61	-0.32980636
32	0xbf7199ee	-0.94375503
33	0x3ea99964	0.3312484
34	0xbf63757e	-0.88851154
35	0xbf9e8750	-1.2385044
36	0x3fc1a7af	1.5129298
37	0xbf573a5c	-0.84073424
38	0xbf927a77	-1.1443623
39	0xbfcfaece	-1.6225221
40	0xbf1fc427	-0.6240868
41	0xbf6a3f58	-0.91502905
42	0x3f1c178f	0.6097345
43	0x3ecdcadc	0.40193832
44	0xc021521f	-2.5206373
45	0xbf0f62aa	-0.56009924
46	0xbf03163b	-0.51205796
47	0x3eabc9ea	0.33552486

arith.constant1 f4 [16, 8]
0	0xbe260f20	-0.16216707
1	0xbf89df86	-1.0771339
2	0xbeb7ed60	-0.3592329
3	0x3e0ed118	0.1394695
4	0xbe944944	-0.28962147
5	0xbd4fc7c0	-0.050727606
6	0xbd4c2480	-0.049839497
7	0xbe8739f8	-0.26411414
8	0xbdccfe60	-0.10009456
9	0xbecac318	-0.3960197
10	0xbb8fd600	-0.0043895245
11	0xbdcbe3b0	-0.09955537
12	0xbe867160	-0.26258373
13	0xbc1eb680	-0.009687066
14	0x3d1e1440	0.03859353
15	0x3ebe48a4	0.37164795
16	0xbf6d6dae	-0.9274548
17	0x3e373aa0	0.17893457
18	0x3d77b820	0.06047833
19	0x3e73a308	0.2379266
20	0x3c380000	0.011230469
21	0x3d510460	0.051029563
22	0xbef124e0	-0.47098446
23	0xbec0fa38	-0.37690902
24	0x3fc0852c	1.5040641
25	0xbed28adc	-0.41121566
26	0x3effa788	0.49932504
27	0x3eead700	0.45867157
28	0xbe8d7b04	-0.27632916
29	0x3eeb3a44	0.4594289
30	0xbe4958c0	-0.19662762
31	0xbeb088e4	-0.3447944
32	0xbdbe8680	-0.093029976
33	0xbfb7bad0	-1.4353886
34	0x3d565c40	0.05233407
35	0x3ee52c98	0.44760585
36	0xbe4c8300	-0.19971848
37	0x3e81d658	0.25358844
38	0xbec8a6f8	-0.39189887
39	0xbe08fbd8	-0.13377321
40	0xbf81767a	-1.0114281
41	0x3e401b40	0.18760395
42	0xbe9345b4	-0.28764117
43	0x3e415e98	0.18883741
44	0x3ea01590	0.3126645
45	0xbe3a8a80	-0.18216896
46	0x3e36ab28	0.17838728
47	0x3ecf5474	0.4049412
48	0x3fb3dcc6	1.405175
49	0xbf998b7a	-1.199569
50	0x3ea2b2a0	0.31776905
51	0x3d860ff0	0.065460086
52	0x3e41b0b0	0.18915057
53	0x3e2295b8	0.15877426
54	0x3c95a680	0.01826787
55	0xbec8f3e4	-0.39248574
56	0x3f93b243	1.1538776
57	0xbece5fd8	-0.40307498
58	0xbec0ba60	-0.37642193
59	0x3e94715c	0.28992736
60	0x3e9437c4	0.28948796
61	0x3d7451e0	0.059648395
62	0xbe39abb8	-0.18131912
63	0x3ecd45dc	0.4009236
64	0xbf82a26f	-1.0205821
65	0x3c9c22c0	0.019059539
66	0x3e68d708	0.22738278
67	0xbee362b4	-0.44411242
68	0xbe119fc0	-0.14221096
69	0x3dd09f10	0.10186589
70	0xbc656b80	-0.014002681
71	0xbe9373a8	-0.28799176
72	0xbe0ad7a8	-0.13558829
73	0xbf87c5ae	-1.0607202
74	0x3e93b014	0.28845274
75	0x3e314dd0	0.1731484
76	0x3e0b8660	0.13625479
77	0xbd5c42e0	-0.053774714
78	0xbeb4b400	-0.3529358
79	0xbea277f0	-0.3173213
80	0x3fb70348	1.4297876
81	0xbde5a1a0	-0.11212468
82	0xbe8793dc	-0.26479995
83	0xbe89e980	-0.2693596
84	0xbed7be34	-0.421373
85	0x3e638150	0.22217298
86	0x3efe38b4	0.49652636
87	0x3e694640	0.22780704
88	0xbddff2a0	-0.10934949
89	0xbde2af10	-0.11068547
90	0xbe2bad98	-0.1676544
91	0xbe7c3500	-0.24629593
92	0xbe2af230	-0.1669395
93	0x3e0e85f0	0.1391828
94	0xbd9bf440	-0.07614946
95	0xbe767e78	-0.24071681
96	0xbf53dfb1	-0.827632
97	0xbfb000e2	-1.375027
98	0xbde33c00	-0.110954285
99	0xbe8725b8	-0.26395965
100	0x3e5e23a8	0.2169329
101	0x3e2eeff8	0.17083728
102	0x3ee51a64	0.44746697
103	0xbe6af428	-0.229447
104	0xbf50dc28	-0.8158593
105	0xbe8c59c4	-0.27412236
106	0xbe6f5370	-0.23371673
107	0xbef6fd54	-0.4824015
108	0x3eb5e568	0.35526586
109	0xbeeede20	-0.46653843
110	0x3eaffe84	0.34373868
111	0xbe5ea980	-0.21744347
112	0xbe634c78	-0.2219714
113	0xbebd16d8	-0.3693149
114	0x3e9297fc	0.2863158
115	0x3ebfadd8	0.3743732
116	0x3edd3b88	0.4320948
117	0x3e8173c0	0.25283623
118	0x3d0531a0	0.03251803
119	0x3d5e09e0	0.054208636
120	0xbec36450	-0.3816247
121	0xbcc7dd40	-0.024397492
122	0xbe1b7878	-0.15182674
123	0xbdac4bd0	-0.084128976
124	0x3d0d0800	0.034431458
125	0xbcea2a40	-0.0285846
126	0x3eed4c30	0.4634719
127	0x38b48000	8.606911e-05

arith.constant2 f4 [3]
0	0xbe356536	-0.1771439
1	0x3f0f70bc	0.56031394
2	0xbf6cbf7d	-0.9247969

sequential_1/dense_1_2/BiasAdd/ReadVariableOp f4 [16]
0	0xbfb451ee	-1.4087503
1	0x00000000	0.0
2	0xbf840c5e	-1.0316274
3	0xbf6c7c23	-0.9237692
4	0xbfe05aa3	-1.752766
5	0xbf840c6d	-1.0316292
6	0xbfc9e094	-1.5771661
7	0xbf46f398	-0.77715445
8	0xbf840c86	-1.0316322
9	0xbf8c2a89	-1.0950481
10	0xbf4bf0de	-0.7966441
11	0x00000000	0.0
12	0xc0218e96	-2.5243278
13	0xbf840c7f	-1.0316314
14	0x00000000	0.0
15	0x00000000	0.0

sequential_1/dense_1/BiasAdd/ReadVariableOp f4 [8]
0	0xbf840924	-1.031529
1	0xbfbb4601	-1.4630738
2	0x00000000	0.0
3	0x00000000	0.0
4	0x00000000	0.0
5	0x00000000	0.0
6	0x00000000	0.0
7	0x00000000	0.0

sequential_1/dense_1/MatMul f4 [8, 4]
0	0xbfb60dbf	-1.4222945
1	0xbec4b5ce	-0.38419956
2	0xbfad7a3e	-1.355293
3	0xbfcc1e3b	-1.5946726
4	0xbfadbe81	-1.3573762
5	0xbfe5062d	-1.789251
6	0xbf91923d	-1.1372753
7	0xbef20f72	-0.4727741
8	0xbea29459	-0.31753805
9	0xbead1854	-0.33807623
10	0x3d525ac0	0.051356077
11	0xbeb0115f	-0.34388253
12	0x3ea20a26	0.31648368
13	0xbf341f6a	-0.70360434
14	0xbe67193c	-0.2256822
15	0xbee715ec	-0.45133913
16	0xbe65bb5a	-0.2243475
17	0xbef94edc	-0.48692977
18	0x3e562f94	0.20916587
19	0xbf3177c4	-0.6932337
20	0xbe46ba78	-0.1940707
21	0xbf187122	-0.59547627
22	0xbf1c8ac5	-0.61149246
23	0xbf2211cc	-0.63308406
24	0xbe949ec3	-0.29027376
25	0xbe207e50	-0.15673184
26	0xbe89a37c	-0.2688254
27	0x3f15c43d	0.5850256
28	0xbf024fac	-0.5090282
29	0xbdf00d80	-0.11721325
30	0xbd83af38	-0.06429905
31	0x3eb5630a	0.35427123
